checkpoint.pth (torch, 22566 bytes, 6 tensors)

fc1.weight f4 [64, 8]
00000000: 1922 d23e abd7 583f a6de f7be a608 a33f
00000010: 2b29 263f d120 49bf c2a9 2ebf 8732 a2bc
00000020: 2388 733e c1dd 01be 5501 c23f 466e 11bf
00000030: 515a a5be 2a94 fd3e 2958 b83d 3415 9d3d
00000040: 8dee dfbd b8d6 08be fb1c 3b3f 8667 ffbe
00000050: 7b14 1d3f f5ed a6bc 1268 ffbe f10b 3f3f
00000060: 7d7f 78bf 479b 9dbe cdda a8bf 7219 61bf
00000070: 52ed e63e c1ab 09bf a15a 043e f0b4 fabe
00000080: 61ab db3e 1c18 cabd 5649 353f fc34 333f
00000090: 12d7 3a3d d05d d03e cfa7 a2be 676d 233f
000000a0: 4845 ce3e 87ec 36be dd77 773f efaa 8cbe
000000b0: d220 053f b146 623d 3b83 febe 7fdd a0be
000000c0: b6b7 2abe 46b5 36c0 0fb3 5abe 28a7 de3e
000000d0: ebd2 343f 80c0 373f 5090 213e 6f3c b73e
000000e0: 87aa c53e 021e b2be 8708 283e 131a 2abf
000000f0: e23a 73bf c6ae bcbe baf7 6f3e 61e2 fbbd
00000100: b146 533e a173 acbe e736 943d f9e0 aabe
00000110: 4e27 9ebf 4473 2fbe 2752 083f 0315 f23e
00000120: a5ba 593f da93 01bf 525a 163f 5976 06bf
00000130: 9c4b e43d 3e77 79bd 595c b23d 6937 f83e
00000140: 5da0 bfbd 2dc2 23bf 92d6 93be f68b 83bf
00000150: f637 163f d225 0a3d cdca dc3d 50e2 513e
00000160: c0f5 3dbe a36c b63d cf31 a13e f49f 01bf
00000170: 522e 25bc ef68 b33f 0318 eebe 28ec 30bd
00000180: 0269 283e 86c4 c4be 396c adbe 0122 95bf
00000190: 4d1e adbe eb13 af3d ec9f 843e aa17 d03d
000001a0: b457 263d 1bd5 5dbe 2f66 c73d aadb 1cbf
000001b0: cbd6 01bf b0e6 e6be 78d0 253f 7e18 2d3e
000001c0: 3b1a 86be 8523 62bf 9354 77be f698 40be
000001d0: abb4 53be 0635 b8bf dd98 02be 501d 7bbe
000001e0: 042e 74be 35b8 4b3e 8a49 493e 406a a6bf
000001f0: 9710 1cbf f02f 9ebe 6846 12bc dd28 8ebe
00000200: 5a43 c53e 58ce f3bb a956 8f3f 5f8d 6b3f
00000210: fb42 9dbf 3c8d 0d3f acbe 8dbe 3f36 aebe
00000220: 6159 83bf 967a 86bf aa65 12be eb6e 6dbf
00000230: b9ab adbe 5ec0 3ebe fe3f 8abd 63bd e7bd
00000240: 4907 29bd 0451 19c0 f8f9 2d3f c5f7 e6be
00000250: 82b9 633e 8ad2 ccbe 6974 1e3f 626b 0e3c
00000260: 42fc 30be 948f 163e 9bce 0dbf 8a25 7fbf
00000270: 8d11 d23e f95d 76bd 34b5 ef3c 656c 223e
00000280: 37df 1e3f 7275 01be 6ad5 ab3e 9d57 85bf
00000290: d65a e13e f66d b03e ab33 9cbd 1d8a 983e
000002a0: 2af1 97bd 1866 353e 28c1 4cbf 41af d9be
000002b0: 4d97 0cbe 5432 6b3f 09c8 a2bf 1a73 5cbe
000002c0: c6fb d4be 3510 983f 1020 123f 1765 aebf
000002d0: 78f3 293e d613 cc3d c4d5 773e 6a39 3d3f
000002e0: 141f 833f 44ec 90bf afb4 5e3f 68c1 b4be
000002f0: 9a47 41bf 1e67 9bbe a04f cbbd 0d3e 37bd
00000300: 349d 82be 2c1c b53e 690c 883d f5ed 03be
00000310: 6dd4 f53e 5135 8ebd b0d3 10bf be2f 253f
00000320: 85ee 3abf d51e 163e e642 dabe 412b de3d
00000330: 8cc5 13bf 9d5f abbe e68f 44bf 8ce2 25bf
00000340: 0720 533b 6402 a2bd f7a1 2c3e c6b5 43be
00000350: 3b0e 28bf 839c 0dbf 9f14 fabe 7b75 7d3f
00000360: d5f0 e53c e686 26be cf8e 7bbf 7a1c 1fbf
00000370: 4b7e dfbf 3dca 313f 38ca 893d e07d 183e
00000380: 530a 39be 5ef4 9a3e be25 ac3e 0176 5a3d
00000390: d315 44bf f90f 90bf 3c85 3cbf 2246 373f
000003a0: 2302 ac3f ab2c a33e fd95 e63e 8411 513f
000003b0: e181 35bf 2e1d 143e 3604 b43c 97cb 50bf
000003c0: f945 38bd 6dfa 07bf 16af 253f 8620 dfbe
000003d0: ce4e 6fbd f4c3 61bf 80db 6bbf 0d3f cbbc
000003e0: d37e 6ebd 090e 08be b3a1 99bd ae68 c4bf
000003f0: 7f7a 6b3f af9b a4be 79cd 383e 3339 62be
0.4104164 0.84704083 -0.48412055 1.2737014 0.6490657 -0.785657 -0.6822778 -0.019799484
0.23782401 -0.12682249 1.5156657 -0.5680889 -0.32295468 0.49527103 0.0900119 0.0767006
-0.10934172 -0.13363159 0.73091096 -0.4988367 0.61359376 -0.020377139 -0.49884087 0.74627596
-0.9706953 -0.3078253 -1.3191773 -0.8792945 0.45102936 -0.537777 0.12925197 -0.4896617
0.4290419 -0.0986788 0.70815027 0.7000272 0.045615263 0.40696573 -0.31768653 0.6383881
0.40287232 -0.17863666 0.9666727 -0.27474162 0.52003205 0.055243198 -0.49709496 -0.31418988
-0.16671643 -2.854814 -0.21357368 0.43486905 0.70634335 0.71778107 0.15777707 0.35788295
0.38606665 -0.3478852 0.16409503 -0.66446036 -0.95011723 -0.36852092 0.23434344 -0.12299038
0.20632435 -0.33681968 0.07237034 -0.33374766 -1.2355745 -0.17133814 0.53250355 0.47281656
0.8505042 -0.5061623 0.5873157 -0.52524334 0.11147234 -0.060904734 0.0870902 0.48479775
-0.09356759 -0.63968164 -0.28874642 -1.0277088 0.5867914 0.033727475 0.10780869 0.20496488
-0.18550777 0.089074396 0.31483313 -0.50634694 -0.010081844 1.4016398 -0.46502694 -0.043193966
0.16446307 -0.38431185 -0.3387163 -1.1651002 -0.3381218 0.08548721 0.2590326 0.101607636
0.040610984 -0.21663325 0.09736287 -0.6127268 -0.50718373 -0.45097876 0.64771223 0.16903874
-0.26191887 -0.8833545 -0.24153356 -0.1880835 -0.20674388 -1.4391181 -0.12753625 -0.245229
-0.23845679 0.19894488 0.19656959 -1.3001175 -0.60962814 -0.30895948 -0.008927919 -0.2776555
0.38527948 -0.0074403696 1.1198322 0.9201259 -1.2286066 0.5529363 -0.27684534 -0.3402576
-1.0261651 -1.050616 -0.14296594 -0.9274737 -0.33920076 -0.1862807 -0.06750487 -0.113154195
-0.041266713 -2.3955698 0.6795955 -0.45110908 0.22238734 -0.4000438 0.6189638 0.008692594
-0.17283729 0.14703208 -0.5539338 -0.99666655 0.41029015 -0.060148213 0.02926121 0.15861662
0.6205935 -0.12642458 0.3356126 -1.0417362 0.44014615 0.34458894 -0.076270424 0.29792872
-0.07419045 0.17714727 -0.79982233 -0.4251652 -0.13729592 0.9187367 -1.2717296 -0.21528283
-0.41598338 1.1879946 0.57080173 -1.36246 0.16596782 0.09964721 0.24202639 0.7391573
1.0243859 -1.1322103 0.8699445 -0.35303807 -0.7549988 -0.3035211 -0.09927297 -0.04473691
-0.2551056 0.35373056 0.06642992 -0.12883742 0.4801363 -0.06943763 -0.5657301 0.64525974
-0.730202 0.14660199 -0.42629164 0.10848094 -0.5772331 -0.33471385 -0.7678207 -0.6479881
0.0032215135 -0.07910612 0.1685866 -0.1911231 -0.65646714 -0.5531694 -0.48843858 0.99007386
0.02806894 -0.16262397 -0.98264784 -0.62152827 -1.7460417 0.69449216 0.06728023 0.14891768
-0.18070345 0.30264562 0.33622545 0.053335194 -0.765958 -1.1254874 -0.736408 0.7159139
1.3438152 0.31870016 0.45036307 0.8166735 -0.70901304 0.14464256 0.021974664 -0.81560653
-0.044988606 -0.53116494 0.64720285 -0.435795 -0.058424763 -0.88189626 -0.92131805 -0.024810338
-0.058226418 -0.13286604 -0.07501545 -1.5344446 0.9198379 -0.32150027 0.18047132 -0.22092132

fc1.bias f4 [64]
00000000: afca 1d3e 6823 9bbe 1a99 cf3d 2653 a6be
00000010: adc8 8c3e 9e3e 56bf c5d0 783e e68f 66be
00000020: 2d09 9dbd 885c a3bc 9936 8cbe df43 fb3d
00000030: 90c2 0e3f c522 87be c9a1 d0bc 186e af3e
00000040: e032 033f b294 36bd 91e9 1d3f a9d3 2bbe
00000050: a9e0 a2bd e7af 0cbd e659 633f be9e 04bc
00000060: 3f20 23bf 0350 31bf 1322 2bbe c0bc ff3d
00000070: 8c65 42bd 03cc bebd 0f4a 06be a4ba 303e
00000080: b0fe 0f3f d9cb 803e c843 f73c 033c 063e
00000090: 7580 883e 94eb 91bd a92f a5be 1f9f 9abd
000000a0: 1b6d ab3d 5bc0 d9bd 44b8 a8be e79b a8be
000000b0: 47c1 983e 0ff4 7dbd 80cf fe3e c2d9 903d
000000c0: be70 783f 4b50 093f df6f 63be b262 07bf
000000d0: 32d9 cebe 457c 44be 641e 243e 748f c03d
000000e0: d8b1 80be e451 bbbd 22a9 acbe 5970 0ebf
000000f0: 745d 23bf cda6 343f 5e72 94be 9db4 f5be
0.15409349 -0.3030045 0.10136624 -0.32485312 0.27496853 -0.83689296 0.2429839 -0.2251583
-0.07667766 -0.019941583 -0.27385405 0.12268805 0.5576563 -0.26393715 -0.02546777 0.34263682
0.51249504 -0.0445754 0.6168452 -0.1677996 -0.07953007 -0.03434744 0.8880905 -0.008094488
-0.6372108 -0.69262713 -0.16712217 0.12487173 -0.047460124 -0.09316256 -0.13114189 0.17258698
0.56248 0.25155523 0.030183688 0.1310883 0.26660505 -0.07125011 -0.32262924 -0.07549881
0.083704196 -0.10632392 -0.32953084 -0.32931444 0.2983496 -0.06200033 0.49767685 0.07072784
0.9704703 0.5363814 -0.22210644 -0.5288497 -0.40400082 -0.1918803 0.16027218 0.094023615
-0.25135684 -0.09146479 -0.33722788 -0.5564018 -0.63814473 0.7056702 -0.28993505 -0.4798936

fc2.weight f4 [64, 64]
00000000: bad3 41bd 5600 163d 1c9b 7cbd 7142 a6bd
00000010: 27d5 043d 428b ffbd 2a50 c6bc 7f91 953d
00000020: 1b05 9cbc bbc7 633c 092c e9bd d4da 65bd
00000030: ea8e 1dbd bcad 783b 084d 4c3d bc24 9e3d
00000040: 8eb3 07be c5e7 2fbd 2f6f a0bd 1563 0cbe
00000050: 6d62 bebc d79f 05be 63c1 1b3d a670 dcbb
00000060: 9446 aabd 833e 863d cd46 fabd 63d8 c7bd
00000070: df94 12bd 2a81 f7bd fbd4 9bbd b207 1abd
00000080: dae6 4c3d 1aa2 c53d 8dac e93c 06d6 d1bd
00000090: 16c2 e7bd ede4 be3d a03d 8e3c 1a6f 90bd
000000a0: c5a2 6f3c e7ac 11be 612c 6abd 6be9 a33d
000000b0: d208 1bbd 1262 abbc 1d43 07be ec62 c6bd
000000c0: 7e8a 41bd 8c1a fdbd c202 4fbc 04d0 6abb
000000d0: dfb2 ffbd a17c 793c a7cd 88bd f050 86bd
000000e0: 606f ea3c 1b06 433d 12e5 74bd 1c36 52bd
000000f0: 430c c5bd ec32 05be 6d7c 05be 4bf5 2bbd
00000100: 55c8 02bf db6e 393e d41a 9fbe 897a 0dbe
00000110: a81d b13e 5044 fc3e 13e4 9ebe a80a 223f
00000120: 1afd 153e dad2 053e 07dc 8e3f 7273 0c3f
00000130: 39ef 04bd bfb9 323e ecc0 093f 577d 5a3f
00000140: 8abd 763f 9277 583e c5cf 22bf 69f2 193f
00000150: 8e01 b83e 0759 9ebc fbb4 d13c b1a4 8d3f
00000160: 8e07 493e 619d 303e b10a 18bd 7231 f4be
00000170: c28c c23e 4425 e63e 01d2 853e aa5a 0cbf
00000180: 54c3 a2be 6c06 1d3f 1b5e 70bf 575d cebd
00000190: 4043 803e 3543 423f c5a5 f73c cfac 873e
000001a0: 2ddb 543d d4ac e63e fc19 a6bf db09 0c3e
000001b0: ffa3 953d 0b50 af3e 4d8b 163f e7d7 81be
000001c0: 14ce 8cbe 0630 cd3e ca37 90be cdc1 0d3f
000001d0: 917e 463f 811c 7f3f 1b08 5abf 8927 433e
000001e0: 5070 3b3f 04ba 2c3d 891e d83e 07fa 163e
000001f0: 8a12 593f 88ed 96be b54e bfbe 0a12 35bf
00000200: 68b9 d1be 47ac 223f 5fe7 0dbf 956b 56bf
00000210: 21e8 73be bad1 9c3f 3889 0fbf 7a0e d53e
00000220: 2dde 053e f119 653e 623f 733f b8d8 1f3f
00000230: 91ed 783e f54e 763d 723a c93d b291 483f
00000240: 4fa2 b1be 9ed0 4b3d e9b4 65bf fb59 1a3f
00000250: 03fa 423e 8c0c 973d 15ad 0c3f dfea 453f
00000260: 22be 0a3f 43a1 fb3e 5116 b53e 7de8 53bf
00000270: d8a0 9c3e e991 5a3f 9445 0b3f a0a8 79bc
00000280: d350 21bf dfda c93e 0cc3 b3bf ac7b 05be
00000290: 49d0 383e 13e2 8f3f ad96 ebbe 6370 513e
000002a0: c3ec 913e 9f85 173e d488 6cbf 5142 0fbf
000002b0: d68e 513e 64fc 563d 7f94 d33e 7568 a0be
000002c0: bd32 483e 2b65 0a3f 9945 5c3e de24 9d3e
000002d0: 7e23 3f3f 0f6e 863e c494 80bf ab07 ab3e
000002e0: f897 413f 2f37 68bf bf81 f33e 8b30 da3e
000002f0: f2a6 dabd 3057 123e 6b0c 9cbe 992c 42bf
00000300: 6aa5 25bf e550 743f 0495 44bf cfec 26be
00000310: 75bb a9bd 7181 7b3f c79f 8fbe 1b22 1c3f
00000320: cce4 573e fcd3 313e 06a2 a83f 1601 963e
00000330: 28fc 84be 93c0 983e b220 e63e 479f 443f
00000340: 074a 013e c631 cf3e 236e 1fbf 6ecc aa3e
00000350: c94f 123f 564b 23bc e548 10bc de4a 843f
00000360: 6550 ec3e 04a3 4e3f 28c8 c43e 19f0 7ebf
00000370: 209a 103f 6811 233f 0573 9d3e 5b02 13bf
00000380: a992 adbe 6c34 303f a780 5abf d3aa 0fbe
00000390: 3598 483e 62d3 893f cfa7 b13d e19b c33e
000003a0: dad4 093f a2cd a03e 73f8 96bf bd8f 9f3e
000003b0: 0098 753e 5c6d d73e 17d4 253f e440 92be
000003c0: 3b59 30bd 5fd4 e23e 8745 66be 06fa 153f
000003d0: 3d4a 433f fff4 973f 9a49 95bf bc1e bf3e
000003e0: ab75 813f ada1 02bf 43e4 353f 66e2 cc3d
000003f0: 383f 9a3f 28f7 ddbe 788a a5bd 8464 42bf
-0.04732106 0.036621414 -0.06167136 -0.081181414 0.03242984 -0.12477733 -0.024208147 0.07303142
-0.019045403 0.0139026 -0.11385352 -0.056116894 -0.03846637 0.003794535 0.04987815 0.0772185
-0.13252088 -0.042945642 -0.078337066 -0.13709672 -0.023240292 -0.13049255 0.038026225 -0.006727296
-0.08314243 0.06554892 -0.122205354 -0.09758069 -0.035786506 -0.12085183 -0.07608982 -0.037604995
0.050024845 0.09650059 0.028524661 -0.102459 -0.11316316 0.09321008 0.01736337 -0.07052441
0.01462621 -0.14226113 -0.05717123 0.08003505 -0.03785021 -0.020920787 -0.13209195 -0.096868366
-0.047251217 -0.12358579 -0.012634935 -0.0035829553 -0.12485289 0.015227468 -0.0667985 -0.06558406
0.02861756 0.047613245 -0.05978877 -0.051321134 -0.09621479 -0.13007706 -0.13035746 -0.041981976
-0.5108693 0.18108694 -0.31075156 -0.13816275 0.34592938 0.49270868 -0.31033382 0.6329751
0.14647332 0.13068715 1.1160897 0.54863656 -0.032454703 0.17453669 0.5381 0.85347503
0.96382964 0.21139362 -0.6359828 0.60135514 0.35938686 -0.01932956 0.025598994 1.1065885
0.19631788 0.17247535 -0.03711957 -0.47693974 0.37998015 0.44950306 0.26136783 -0.5482584
-0.3178965 0.61337924 -0.93893594 -0.10076397 0.25051308 0.758838 0.030230412 0.2649903
0.051966835 0.45053732 -1.297668 0.13675635 0.073066704 0.34240755 0.58806306 -0.25360033
-0.27500975 0.400757 -0.28167564 0.5537384 0.77536875 0.9965287 -0.8516862 0.1905805
0.7321825 0.042169586 0.42210796 0.14743815 0.84793913 -0.29478097 -0.37364736 -0.7073065
-0.40961766 0.63544124 -0.5543117 -0.8375791 -0.23819019 1.2251503 -0.56068754 0.41612607
0.13073035 0.22373177 0.9501859 0.6244006 0.24309374 0.060133893 0.09825601 0.78347313
-0.34694144 0.0497595 -0.8972917 0.6029355 0.19040684 0.0737544 0.549516 0.7731151
0.5419637 0.4914647 0.3536859 -0.82776624 0.30591464 0.8537889 0.5440304 -0.015237957
-0.6301395 0.39424798 -1.4043899 -0.13035458 0.18048204 1.1240867 -0.46013394 0.20453028
0.28500947 0.14797066 -0.92396283 -0.55960566 0.20464644 0.052486792 0.4132423 -0.31329694
0.19550605 0.5406062 0.21510924 0.3069219 0.7466353 0.26255843 -1.00454 0.33404288
0.7562251 -0.90709203 0.47559926 0.4261516 -0.106763735 0.14291072 -0.30478224 -0.758493
-0.64705527 0.95435935 -0.7678988 -0.16301273 -0.08287708 0.98244387 -0.28051588 0.6098954
0.21083373 0.17366022 1.3174446 0.29297704 -0.2597363 0.29834422 0.4494682 0.7680554
0.12625895 0.40467662 -0.6227743 0.33359092 0.5715299 -0.009966692 -0.008806442 1.0335348
0.46155086 0.8071749 0.38433957 -0.9958511 0.56485176 0.63698435 0.30751815 -0.5742547
-0.33900955 0.6882999 -0.8535256 -0.14030008 0.19589312 1.0767634 0.08674585 0.38204864
0.5384041 0.31406885 -1.1794571 0.3116435 0.23983765 0.42075622 0.6477675 -0.28565133
-0.043053847 0.4430265 -0.2248746 0.5858463 0.76285154 1.1871642 -1.1663086 0.37328136
1.0114034 -0.5102795 0.71051425 0.100041196 1.2050543 -0.43352628 -0.080830514 -0.75934625

fc2.bias f4 [64]
00000000: 6a77 d73c f926 2ebe cc27 533b d02a 92be
00000010: ad01 723f 2ded 41bd 5754 b2bd 674d c73e
00000020: 12dc 44be 3819 0b3f 80aa ccbe acc0 20bf
00000030: f24c 69be e580 803e c87c 8d3e 5b0d dfbd
00000040: 83f1 0cbe dcef 7fbe bc27 7fbe 1701 0ebf
00000050: cfca bbbe 32b2 663e a87c 1fbc 2a61 473e
00000060: 92a3 81be 1292 a53e 246a 8fbe 1a05 c4be
00000070: b964 f73e 1fe4 9dbe 1988 28be 89c0 96be
00000080: 4a7c fc3e d27f 143f 5003 6c3e 366a 75be
00000090: 55d4 9e3b c487 31bf d9fa 92bd 9509 a9be
000000a0: 86b0 e63e 25a0 a6be b612 fbbd c984 12bf
000000b0: cbac d33e b3c1 20bf 88b8 8bbc 50a6 e93e
000000c0: d569 65be dcf8 84be 1b1a 58be cef2 aebd
000000d0: 510a 5e3f e9e7 66be 55c0 efbd 8aea 3dbf
000000e0: 36d9 49be 8289 2ebe 4b49 c9bd 168f 3e3e
000000f0: 00cb 36bb a56d 35be d466 083f e135 8f3f
0.026302058 -0.17007054 0.0032219766 -0.28548288 0.9453381 -0.04734533 -0.08707493 0.3892624
-0.19224575 0.54335356 -0.3997383 -0.62793994 -0.22783259 0.2509834 0.27634263 -0.10891219
-0.13764004 -0.24993843 -0.24917501 -0.5547041 -0.36678168 0.22528914 -0.00973431 0.19470659
-0.25320107 0.32338005 -0.28010666 -0.38285142 0.48319033 -0.30838105 -0.16458167 -0.29443768
0.49313575 0.5800754 0.23048139 -0.23966298 0.0048470893 -0.69347787 -0.07176752 -0.33015123
0.45056552 -0.32544056 -0.12259428 -0.57233864 0.41342768 -0.6279556 -0.017055765 0.456347
-0.22403653 -0.25971115 -0.21103708 -0.08542405 0.8673449 -0.22549404 -0.11706606 -0.74186003
-0.19711766 -0.17044643 -0.09828433 0.1860927 -0.0027891994 -0.17717607 0.53281903 1.1188318

fc3.weight f4 [4, 64]
00000000: 0dba b63d 8f7f 09bf ad16 71bf d8eb 15bf
00000010: 9265 3540 a12d abbf db5f b5bc ba11 573f
00000020: 60f0 9dbf 2b14 a3bf aac8 33bf 5a65 8abf
00000030: 9966 08bf d77a 0740 22c4 53bf c70c dfbe
00000040: 6082 abbc 52ef 12bf f083 18bf 75cd 873a
00000050: 0615 23bf faac 9d3f b379 9a3b 5da8 2540
00000060: 542b f4be 578e 19bf 8e3c efbe b322 1ebf
00000070: fa66 313d 06b4 44bf 091a 4dbf 4c4f 36bf
00000080: fa9b c43f bc51 bc3f c8a1 aabf a488 60bf
00000090: 7da2 5ebf b672 343d 045c 52be 2037 53bf
000000a0: 43d8 d73f ad3b acbe c060 89bd a7ef 3abf
000000b0: 2770 0140 64e8 24bf f0a6 3e3d 8e75 0a40
000000c0: 5e01 41bf 333e 23bf 8299 eabe 0e00 0fbc
000000d0: d987 6b3f be73 11bf e21e 70bf b4fa c0bf
000000e0: 9331 e0be be63 a3be 88b3 99bf b2c6 80bf
000000f0: 1489 2dbd 6689 13bf 5b4c d6bf 18b5 c83f
00000100: 8e32 15bd 6367 d3bd f2b0 9abf 9ccd e7be
00000110: 34ec 4040 c36e 51bf 266f ae3c ca7b 8e3f
00000120: 56d4 50bf 0cb1 90bf 4af4 1fbf 42f4 40bf
00000130: c976 f6be a131 0c40 c2a0 d6be 7928 fcbe
00000140: 2c6a 863d 1462 15bf b985 64bf 628a db3d
00000150: 5fcc febe afb9 cb3f ba49 cb3d 5470 1d40
00000160: c00b e4be 0a35 19bf 9ae4 2dbf d743 e0be
00000170: bba4 71bf 95be 0fbf a5d6 a9bf 7b21 c8be
00000180: b444 9a3f 3657 d53f b111 f8bf 66bb dabe
00000190: db96 10bf 2d0a a0bc 4216 58bf e4e6 07bf
000001a0: e085 cc3f 1995 ffbe 62ce f43d dd64 3dbf
000001b0: 3873 0640 5e2a a7bf 9717 2cbf c68b 0540
000001c0: 16a1 3bbf 384c 02bf d096 e5be 2583 b73d
000001d0: 4ccf ae3f 1b1f 06bf 77bc 14bf 6972 fbbb
000001e0: 80f7 2ebf 7068 37bf 672e 68bf 08de 97bf
000001f0: f424 16bd 57d3 ebbe c70a 91bf 81e7 ab3f
00000200: cf89 a73d a5d9 31bf 54b3 b7be b782 44bf
00000210: fd08 793f ca23 1ebf 4624 193d 6308 0540
00000220: 36c0 20bf 1d21 20c0 e8c6 4abf e97e 60bf
00000230: 745d 10bf 841a 0d40 7978 57bf 75b4 75bf
00000240: 6012 803d a48c 36bf 7756 2bbf 7ca1 a6bf
00000250: 289a 25bf 0f51 eb3e 97b6 4cb9 9ef3 0d40
00000260: adc0 06bf 9041 29bf 0d88 1abf e1c0 06bf
00000270: 7cb0 19bf 7670 f3be 5197 163f 4fc8 00bf
00000280: 1363 0c40 5c93 1940 917f 85bf 6d45 16bf
00000290: 6ad7 a5bf 28f7 2abf 8c76 63bf 756d 09bf
000002a0: cda0 0b40 2726 19bf e44b ce3d 7df7 6ebf
000002b0: cdd3 0540 8597 7fbf 337f 0fbf ea13 1f40
000002c0: 0ca1 debe 6529 04bf 705c 49bf 77d7 c5bd
000002d0: 6cd7 83bf 7978 42bf 64ed 6c3d e1a8 55bf
000002e0: 2cad 35bf b81e 6fbf fd3b 1abf b5f7 bcbe
000002f0: 3843 bc3c 2253 3cbf e08e b6bf c34b fb3f
00000300: 4301 ad3d 88c1 82bf 9a66 1ebf 7fd2 45bf
00000310: ed08 1a40 d41d 13bf 3e6f abbd eb8e a23e
00000320: bf1e 19bf ad56 cdbf 8b12 52bf c429 85bf
00000330: 03d4 2dbf 3673 0f40 8e72 1fbf 4b13 e6be
00000340: 58bc 8f3d 5296 31bf cae0 e7be e321 14bf
00000350: 02dd fbbe 5f82 5f3f c87a f23c 4c96 2440
00000360: d473 17bf 67d1 943e a371 4dbf da09 21bf
00000370: e39e 663d c8b1 d9be 3bc0 adbf c913 01bf
00000380: f077 c93f 6e55 0e40 f64a a5bf 08ad d9be
00000390: 13a8 3abf 35e2 93bf 07d6 38bf 99a2 f6be
000003a0: 0b86 ac3f 316c 49bf a205 bcbd 7dc6 74bd
000003b0: 8021 0640 9e4c 94be f725 7fbf 9e4e 0940
000003c0: 64a4 8abe 2e62 fdbe 471a 8cbf fbe5 533d
000003d0: 270e 4f3f 7dbe 16bf 58a7 52bf f09a 42bf
000003e0: 0a91 3fbf 47c2 fdbe fbea b9be 9097 89bf
000003f0: 94e5 c53d f616 76bf d2da 0fc0 8366 ec3f
0.08922205 -0.53710264 -0.94175225 -0.58562994 2.8343244 -1.33733 -0.022140434 0.84011424
-1.2338982 -1.274053 -0.70228064 -1.081218 -0.5328155 2.1168725 -0.8272115 -0.43564436
-0.020936191 -0.57396424 -0.5957632 0.0010360914 -0.63703954 1.2318413 0.0047142147 2.588401
-0.47689307 -0.5998282 -0.46725887 -0.61771697 0.043311097 -0.76837194 -0.8011785 -0.7121475
1.53601 1.4712443 -1.3330622 -0.877085 -0.8696669 0.04405471 -0.20542914 -0.8250599
1.6862873 -0.3363928 -0.06707907 -0.7302193 2.0224702 -0.644171 0.046545923 2.163425
-0.7539271 -0.63766783 -0.45820242 -0.00872804 0.9200416 -0.56817234 -0.93797123 -1.5076509
-0.43787822 -0.31912035 -1.2007914 -1.0060637 -0.042367056 -0.5763153 -1.6742052 1.5680265
-0.036425166 -0.10322454 -1.208525 -0.45274055 3.0144167 -0.81809634 0.021293234 1.1131527
-0.81574 -1.130403 -0.6248213 -0.7537271 -0.481375 2.190529 -0.41919523 -0.49249628
0.065632194 -0.5835278 -0.89266545 0.10719754 -0.49765298 1.5916041 0.099261716 2.459981
-0.44540215 -0.59846556 -0.67926943 -0.43801758 -0.94391984 -0.5615018 -1.3268629 -0.39088044
1.2052217 1.666724 -1.9380399 -0.427211 -0.5648019 -0.019536102 -0.8440896 -0.53086686
1.5978355 -0.4991844 0.11953427 -0.7398203 2.1007824 -1.3059804 -0.67223495 2.086656
-0.7329267 -0.5089755 -0.44841623 0.08960561 1.3657012 -0.52391213 -0.58100075 -0.007673551
-0.68346405 -0.71643734 -0.90695804 -1.1864634 -0.036656335 -0.46059677 -1.1331414 1.3430024
0.08180582 -0.69472724 -0.35879004 -0.76761955 0.9727934 -0.6177336 0.03738811 2.078637
-0.6279329 -2.502021 -0.79209757 -0.8769365 -0.563926 2.2047434 -0.841682 -0.9597848
0.06253505 -0.7130835 -0.6692881 -1.3018031 -0.6468835 0.4596028 -0.00019522976 2.2179942
-0.5263775 -0.66115665 -0.60363847 -0.5263806 -0.6003492 -0.47546738 0.5882464 -0.50305647
2.193547 2.399619 -1.0429555 -0.58699685 -1.2956364 -0.6678338 -0.88852763 -0.53682643
2.1816895 -0.5982384 0.10073069 -0.9334639 2.0910523 -0.99840575 -0.56053466 2.4855905
-0.43482244 -0.51625663 -0.78656673 -0.09660237 -1.0300117 -0.75965077 0.05784358 -0.83460814
-0.70967364 -0.9340625 -0.60247785 -0.36907735 0.022981271 -0.7356435 -1.4262352 1.9632496
0.08447506 -1.0215311 -0.6187531 -0.77274317 2.4067948 -0.5746739 -0.08370827 0.31749663
-0.5981254 -1.6042076 -0.82059544 -1.0403371 -0.6790163 2.241407 -0.6228417 -0.44936594
0.070183456 -0.69369996 -0.45288688 -0.5786421 -0.49192053 0.87308306 0.029599562 2.5716734
-0.59161115 0.2906601 -0.8025152 -0.6290566 0.05630387 -0.4251845 -1.3574289 -0.50420815
1.5739727 2.2239642 -1.2913501 -0.42514825 -0.7291271 -1.1553408 -0.7220158 -0.48170927
1.3478407 -0.7868071 -0.09180762 -0.059759606 2.0957947 -0.28964704 -0.99667305 2.1454234
-0.27078545 -0.49488968 -1.0945519 0.051733 0.8088097 -0.5888441 -0.82286596 -0.76017666
-0.7483069 -0.49562284 -0.36312088 -1.0749378 0.09662929 -0.96128786 -2.2477307 1.8468784

fc3.bias f4 [4]
00000000: 4962 d43e d981 da3e ee80 fc3e 0572 563f
0.41481236 0.4267719 0.49317116 0.8376773
